…
I0922 13:19:29.565415 25770 net.cpp:313] The NetState phase (0) differed from the phase (1) specified by a rule in layer mnist
I0922 13:19:29.565444 25770 net.cpp:313] The NetState phase (0) differed from the phase (1) specified by a rule in layer accuracy
I0922 13:19:29.565533 25770 net.cpp:49] Initializing net from parameters: 
name: "LeNet"
state {
  phase: TRAIN
}
layer {
  name: "mnist"
  type: "Data"
  top: "data"
  top: "label"
  include {
    phase: TRAIN
  }
  transform_param {
    scale: 0.00390625
  }
  data_param {
    source: "examples/digitRecog/digitRecog_train_lmdb"
    batch_size: 64
    backend: LMDB
  }
}
layer {
  name: "conv1"
  type: "Convolution"
  bottom: "data"
  top: "conv1"
  param {
    lr_mult: 1
  }
  param {
    lr_mult: 2
  }
  convolution_param {
    num_output: 20
    kernel_size: 5
    stride: 1
    weight_filler {
      type: "xavier"
    }
    bias_filler {
      type: "constant"
    }
  }
}
layer {
  name: "pool1"
  type: "Pooling"
  bottom: "conv1"
  top: "pool1"
  pooling_param {
    pool: MAX
    kernel_size: 2
    stride: 2
  }
}
layer {
  name: "conv2"
  type: "Convolution"
  bottom: "pool1"
  top: "conv2"
  param {
    lr_mult: 1
  }
  param {
    lr_mult: 2
  }
  convolution_param {
    num_output: 50
    kernel_size: 5
    stride: 1
    weight_filler {
      type: "xavier"
    }
    bias_filler {
      type: "constant"
    }
  }
}
layer {
  name: "pool2"
  type: "Pooling"
  bottom: "conv2"
  top: "pool2"
  pooling_param {
    pool: MAX
    kernel_size: 2
    stride: 2
  }
}
layer {
  name: "ip1"
  type: "InnerProduct"
  bottom: "pool2"
  top: "ip1"
  param {
    lr_mult: 1
  }
  param {
    lr_mult: 2
  }
  inner_product_param {
    num_output: 500
    weight_filler {
      type: "xavier"
    }
    bias_filler {
      type: "constant"
    }
  }
}
layer {
  name: "relu1"
  type: "ReLU"
  bottom: "ip1"
  top: "ip1"
}
layer {
  name: "ip2"
  type: "InnerProduct"
  bottom: "ip1"
  top: "ip2"
  param {
    lr_mult: 1
  }
  param {
    lr_mult: 2
  }
  inner_product_param {
    num_output: 10
    weight_filler {
      type: "xavier"
    }
    bias_filler {
      type: "constant"
    }
  }
}
layer {
  name: "loss"
  type: "SoftmaxWithLoss"
  bottom: "ip2"
  bottom: "label"
  top: "loss"
}
I0922 13:19:29.565610 25770 layer_factory.hpp:77] Creating layer mnist
I0922 13:19:29.566056 25770 net.cpp:91] Creating Layer mnist
I0922 13:19:29.566069 25770 net.cpp:399] mnist -> data
I0922 13:19:29.566164 25770 net.cpp:399] mnist -> label
I0922 13:19:29.567777 25773 db_lmdb.cpp:38] Opened lmdb examples/digitRecog/digitRecog_train_lmdb
I0922 13:19:29.574920 25770 data_layer.cpp:41] output data size: 64,1,28,28
I0922 13:19:29.575852 25770 net.cpp:141] Setting up mnist
I0922 13:19:29.575868 25770 net.cpp:148] Top shape: 64 1 28 28 (50176)
I0922 13:19:29.575873 25770 net.cpp:148] Top shape: 64 (64)
I0922 13:19:29.575876 25770 net.cpp:156] Memory required for data: 200960
I0922 13:19:29.575882 25770 layer_factory.hpp:77] Creating layer conv1
I0922 13:19:29.575898 25770 net.cpp:91] Creating Layer conv1
I0922 13:19:29.575908 25770 net.cpp:425] conv1 <- data
I0922 13:19:29.575932 25770 net.cpp:399] conv1 -> conv1
I0922 13:19:29.583099 25774 blocking_queue.cpp:50] Waiting for data
I0922 13:19:29.691150 25770 net.cpp:141] Setting up conv1
I0922 13:19:29.691190 25770 net.cpp:148] Top shape: 64 20 24 24 (737280)
I0922 13:19:29.691193 25770 net.cpp:156] Memory required for data: 3150080
I0922 13:19:29.691215 25770 layer_factory.hpp:77] Creating layer pool1
I0922 13:19:29.691256 25770 net.cpp:91] Creating Layer pool1
I0922 13:19:29.691262 25770 net.cpp:425] pool1 <- conv1
I0922 13:19:29.691268 25770 net.cpp:399] pool1 -> pool1
I0922 13:19:29.691321 25770 net.cpp:141] Setting up pool1
I0922 13:19:29.691330 25770 net.cpp:148] Top shape: 64 20 12 12 (184320)
I0922 13:19:29.691334 25770 net.cpp:156] Memory required for data: 3887360
I0922 13:19:29.691337 25770 layer_factory.hpp:77] Creating layer conv2
I0922 13:19:29.691350 25770 net.cpp:91] Creating Layer conv2
I0922 13:19:29.691359 25770 net.cpp:425] conv2 <- pool1
I0922 13:19:29.691364 25770 net.cpp:399] conv2 -> conv2
I0922 13:19:29.692366 25770 net.cpp:141] Setting up conv2
I0922 13:19:29.692383 25770 net.cpp:148] Top shape: 64 50 8 8 (204800)
I0922 13:19:29.692386 25770 net.cpp:156] Memory required for data: 4706560
I0922 13:19:29.692394 25770 layer_factory.hpp:77] Creating layer pool2
I0922 13:19:29.692401 25770 net.cpp:91] Creating Layer pool2
I0922 13:19:29.692404 25770 net.cpp:425] pool2 <- conv2
I0922 13:19:29.692409 25770 net.cpp:399] pool2 -> pool2
I0922 13:19:29.692440 25770 net.cpp:141] Setting up pool2
I0922 13:19:29.692454 25770 net.cpp:148] Top shape: 64 50 4 4 (51200)
I0922 13:19:29.692457 25770 net.cpp:156] Memory required for data: 4911360
I0922 13:19:29.692461 25770 layer_factory.hpp:77] Creating layer ip1
I0922 13:19:29.692467 25770 net.cpp:91] Creating Layer ip1
I0922 13:19:29.692471 25770 net.cpp:425] ip1 <- pool2
I0922 13:19:29.692474 25770 net.cpp:399] ip1 -> ip1
I0922 13:19:29.695600 25770 net.cpp:141] Setting up ip1
I0922 13:19:29.695613 25770 net.cpp:148] Top shape: 64 500 (32000)
I0922 13:19:29.695617 25770 net.cpp:156] Memory required for data: 5039360
I0922 13:19:29.695626 25770 layer_factory.hpp:77] Creating layer relu1
I0922 13:19:29.695631 25770 net.cpp:91] Creating Layer relu1
I0922 13:19:29.695636 25770 net.cpp:425] relu1 <- ip1
I0922 13:19:29.695639 25770 net.cpp:386] relu1 -> ip1 (in-place)
I0922 13:19:29.695790 25770 net.cpp:141] Setting up relu1
I0922 13:19:29.695801 25770 net.cpp:148] Top shape: 64 500 (32000)
I0922 13:19:29.695804 25770 net.cpp:156] Memory required for data: 5167360
I0922 13:19:29.695808 25770 layer_factory.hpp:77] Creating layer ip2
I0922 13:19:29.695814 25770 net.cpp:91] Creating Layer ip2
I0922 13:19:29.695818 25770 net.cpp:425] ip2 <- ip1
I0922 13:19:29.695823 25770 net.cpp:399] ip2 -> ip2
I0922 13:19:29.696419 25770 net.cpp:141] Setting up ip2
I0922 13:19:29.696431 25770 net.cpp:148] Top shape: 64 10 (640)
I0922 13:19:29.696435 25770 net.cpp:156] Memory required for data: 5169920
I0922 13:19:29.696440 25770 layer_factory.hpp:77] Creating layer loss
I0922 13:19:29.696449 25770 net.cpp:91] Creating Layer loss
I0922 13:19:29.696451 25770 net.cpp:425] loss <- ip2
I0922 13:19:29.696455 25770 net.cpp:425] loss <- label
I0922 13:19:29.696461 25770 net.cpp:399] loss -> loss
I0922 13:19:29.696475 25770 layer_factory.hpp:77] Creating layer loss
…
I0922 13:19:29.697131 25770 solver.cpp:181] Creating test net (#0) specified by net file: examples/digitRecog/lenet_train_test.prototxt
I0922 13:19:29.697181 25770 net.cpp:313] The NetState phase (1) differed from the phase (0) specified by a rule in layer mnist
I0922 13:19:29.697266 25770 net.cpp:49] Initializing net from parameters: 
name: "LeNet"
state {
  phase: TEST
}
layer {
  name: "mnist"
  type: "Data"
  top: "data"
  top: "label"
  include {
    phase: TEST
  }
  transform_param {
    scale: 0.00390625
  }
  data_param {
    source: "examples/digitRecog/digitRecog_val_lmdb"
    batch_size: 100
    backend: LMDB
  }
}
layer {
  name: "conv1"
  type: "Convolution"
  bottom: "data"
  top: "conv1"
  param {
    lr_mult: 1
  }
  param {
    lr_mult: 2
  }
  convolution_param {
    num_output: 20
    kernel_size: 5
    stride: 1
    weight_filler {
      type: "xavier"
    }
    bias_filler {
      type: "constant"
    }
  }
}
layer {
  name: "pool1"
  type: "Pooling"
  bottom: "conv1"
  top: "pool1"
  pooling_param {
    pool: MAX
    kernel_size: 2
    stride: 2
  }
}
layer {
  name: "conv2"
  type: "Convolution"
  bottom: "pool1"
  top: "conv2"
  param {
    lr_mult: 1
  }
  param {
    lr_mult: 2
  }
  convolution_param {
    num_output: 50
    kernel_size: 5
    stride: 1
    weight_filler {
      type: "xavier"
    }
    bias_filler {
      type: "constant"
    }
  }
}
layer {
  name: "pool2"
  type: "Pooling"
  bottom: "conv2"
  top: "pool2"
  pooling_param {
    pool: MAX
    kernel_size: 2
    stride: 2
  }
}
layer {
  name: "ip1"
  type: "InnerProduct"
  bottom: "pool2"
  top: "ip1"
  param {
    lr_mult: 1
  }
  param {
    lr_mult: 2
  }
  inner_product_param {
    num_output: 500
    weight_filler {
      type: "xavier"
    }
    bias_filler {
      type: "constant"
    }
  }
}
layer {
  name: "relu1"
  type: "ReLU"
  bottom: "ip1"
  top: "ip1"
}
layer {
  name: "ip2"
  type: "InnerProduct"
  bottom: "ip1"
  top: "ip2"
  param {
    lr_mult: 1
  }
  param {
    lr_mult: 2
  }
  inner_product_param {
    num_output: 10
    weight_filler {
      type: "xavier"
    }
    bias_filler {
      type: "constant"
    }
  }
}
layer {
  name: "accuracy"
  type: "Accuracy"
  bottom: "ip2"
  bottom: "label"
  top: "accuracy"
  include {
    phase: TEST
  }
}
layer {
  name: "loss"
  type: "SoftmaxWithLoss"
  bottom: "ip2"
  bottom: "label"
  top: "loss"
}
I0922 13:19:29.697327 25770 layer_factory.hpp:77] Creating layer mnist
I0922 13:19:29.697855 25770 net.cpp:91] Creating Layer mnist
I0922 13:19:29.697862 25770 net.cpp:399] mnist -> data
I0922 13:19:29.697870 25770 net.cpp:399] mnist -> label
I0922 13:19:29.699347 25775 db_lmdb.cpp:38] Opened lmdb examples/digitRecog/digitRecog_val_lmdb
I0922 13:19:29.699596 25770 data_layer.cpp:41] output data size: 100,1,28,28
I0922 13:19:29.700708 25770 net.cpp:141] Setting up mnist
I0922 13:19:29.700722 25770 net.cpp:148] Top shape: 100 1 28 28 (78400)
I0922 13:19:29.700738 25770 net.cpp:148] Top shape: 100 (100)
I0922 13:19:29.700742 25770 net.cpp:156] Memory required for data: 314000
I0922 13:19:29.700747 25770 layer_factory.hpp:77] Creating layer label_mnist_1_split
I0922 13:19:29.700755 25770 net.cpp:91] Creating Layer label_mnist_1_split
I0922 13:19:29.700759 25770 net.cpp:425] label_mnist_1_split <- label
I0922 13:19:29.700764 25770 net.cpp:399] label_mnist_1_split -> label_mnist_1_split_0
I0922 13:19:29.700772 25770 net.cpp:399] label_mnist_1_split -> label_mnist_1_split_1
I0922 13:19:29.700819 25770 net.cpp:141] Setting up label_mnist_1_split
I0922 13:19:29.700825 25770 net.cpp:148] Top shape: 100 (100)
I0922 13:19:29.700830 25770 net.cpp:148] Top shape: 100 (100)
I0922 13:19:29.700834 25770 net.cpp:156] Memory required for data: 314800
I0922 13:19:29.700836 25770 layer_factory.hpp:77] Creating layer conv1
I0922 13:19:29.700845 25770 net.cpp:91] Creating Layer conv1
I0922 13:19:29.700848 25770 net.cpp:425] conv1 <- data
I0922 13:19:29.700855 25770 net.cpp:399] conv1 -> conv1
I0922 13:19:29.701967 25770 net.cpp:141] Setting up conv1
I0922 13:19:29.701980 25770 net.cpp:148] Top shape: 100 20 24 24 (1152000)
I0922 13:19:29.702008 25770 net.cpp:156] Memory required for data: 4922800
I0922 13:19:29.702018 25770 layer_factory.hpp:77] Creating layer pool1
I0922 13:19:29.702023 25770 net.cpp:91] Creating Layer pool1
I0922 13:19:29.702028 25770 net.cpp:425] pool1 <- conv1
I0922 13:19:29.702042 25770 net.cpp:399] pool1 -> pool1
I0922 13:19:29.702077 25770 net.cpp:141] Setting up pool1
I0922 13:19:29.702083 25770 net.cpp:148] Top shape: 100 20 12 12 (288000)
I0922 13:19:29.702086 25770 net.cpp:156] Memory required for data: 6074800
I0922 13:19:29.702090 25770 layer_factory.hpp:77] Creating layer conv2
I0922 13:19:29.702098 25770 net.cpp:91] Creating Layer conv2
I0922 13:19:29.702102 25770 net.cpp:425] conv2 <- pool1
I0922 13:19:29.702107 25770 net.cpp:399] conv2 -> conv2
I0922 13:19:29.703158 25770 net.cpp:141] Setting up conv2
I0922 13:19:29.703173 25770 net.cpp:148] Top shape: 100 50 8 8 (320000)
I0922 13:19:29.703177 25770 net.cpp:156] Memory required for data: 7354800
I0922 13:19:29.703186 25770 layer_factory.hpp:77] Creating layer pool2
I0922 13:19:29.703192 25770 net.cpp:91] Creating Layer pool2
I0922 13:19:29.703196 25770 net.cpp:425] pool2 <- conv2
I0922 13:19:29.703213 25770 net.cpp:399] pool2 -> pool2
I0922 13:19:29.703265 25770 net.cpp:141] Setting up pool2
I0922 13:19:29.703282 25770 net.cpp:148] Top shape: 100 50 4 4 (80000)
I0922 13:19:29.703285 25770 net.cpp:156] Memory required for data: 7674800
I0922 13:19:29.703296 25770 layer_factory.hpp:77] Creating layer ip1
I0922 13:19:29.703302 25770 net.cpp:91] Creating Layer ip1
I0922 13:19:29.703305 25770 net.cpp:425] ip1 <- pool2
I0922 13:19:29.703320 25770 net.cpp:399] ip1 -> ip1
I0922 13:19:29.706583 25770 net.cpp:141] Setting up ip1
I0922 13:19:29.706607 25770 net.cpp:148] Top shape: 100 500 (50000)
I0922 13:19:29.706610 25770 net.cpp:156] Memory required for data: 7874800
I0922 13:19:29.706619 25770 layer_factory.hpp:77] Creating layer relu1
I0922 13:19:29.706627 25770 net.cpp:91] Creating Layer relu1
I0922 13:19:29.706631 25770 net.cpp:425] relu1 <- ip1
I0922 13:19:29.706635 25770 net.cpp:386] relu1 -> ip1 (in-place)
I0922 13:19:29.706907 25770 net.cpp:141] Setting up relu1
I0922 13:19:29.706930 25770 net.cpp:148] Top shape: 100 500 (50000)
I0922 13:19:29.706934 25770 net.cpp:156] Memory required for data: 8074800
I0922 13:19:29.706944 25770 layer_factory.hpp:77] Creating layer ip2
I0922 13:19:29.706961 25770 net.cpp:91] Creating Layer ip2
I0922 13:19:29.706965 25770 net.cpp:425] ip2 <- ip1
I0922 13:19:29.706972 25770 net.cpp:399] ip2 -> ip2
I0922 13:19:29.707119 25770 net.cpp:141] Setting up ip2
I0922 13:19:29.707129 25770 net.cpp:148] Top shape: 100 10 (1000)
I0922 13:19:29.707132 25770 net.cpp:156] Memory required for data: 8078800
I0922 13:19:29.707139 25770 layer_factory.hpp:77] Creating layer ip2_ip2_0_split
I0922 13:19:29.707144 25770 net.cpp:91] Creating Layer ip2_ip2_0_split
I0922 13:19:29.707149 25770 net.cpp:425] ip2_ip2_0_split <- ip2
I0922 13:19:29.707152 25770 net.cpp:399] ip2_ip2_0_split -> ip2_ip2_0_split_0
I0922 13:19:29.707159 25770 net.cpp:399] ip2_ip2_0_split -> ip2_ip2_0_split_1
I0922 13:19:29.707201 25770 net.cpp:141] Setting up ip2_ip2_0_split
I0922 13:19:29.707216 25770 net.cpp:148] Top shape: 100 10 (1000)
I0922 13:19:29.707219 25770 net.cpp:148] Top shape: 100 10 (1000)
I0922 13:19:29.707228 25770 net.cpp:156] Memory required for data: 8086800
I0922 13:19:29.707231 25770 layer_factory.hpp:77] Creating layer accuracy
I0922 13:19:29.707239 25770 net.cpp:91] Creating Layer accuracy
I0922 13:19:29.707243 25770 net.cpp:425] accuracy <- ip2_ip2_0_split_0
I0922 13:19:29.707258 25770 net.cpp:425] accuracy <- label_mnist_1_split_0
I0922 13:19:29.707262 25770 net.cpp:399] accuracy -> accuracy
…
